model.pth (torch, 3015 bytes, 5 tensors)

weight f4 [5, 4]
0	0xbed21700	-0.41033173
1	0x3ebe0fd6	0.37121457
2	0xbebbeaf2	-0.36702687
3	0xbdb0d148	-0.08633667
4	0x3df511ef	0.11966311
5	0x3e80ed8f	0.25181243
6	0x3eccf9da	0.40034372
7	0x3ee4bd76	0.44675797
8	0xbecafcf2	-0.39646107
9	0x3e00da88	0.12583363
10	0xbe5c3978	-0.21506298
11	0xbd606e00	-0.054792404
12	0xbef36b1f	-0.47542664
13	0x3ee94d7e	0.45566934
14	0xbec0c485	-0.37649933
15	0x3e8c762c	0.27433908
16	0x3ead3896	0.33832234
17	0x3e34f25f	0.17670582
18	0xbe7baf03	-0.2457848
19	0x3eee61e1	0.4655905

bias f4 [5]
0	0x3de10640	0.1098752
1	0x3d63baae	0.055597953
2	0xbee199ea	-0.4406274
3	0x3e5e3613	0.21700315
4	0xbd82d5a4	-0.06388405

weight f4 [3, 5]
0	0xbe51cbe8	-0.2048794
1	0x3ebfc0b2	0.37451702
2	0x3dcc3288	0.099705756
3	0xbe839574	-0.2569996
4	0xbe71a93d	-0.23599716
5	0xbcaef4e0	-0.021357
6	0x3e7fb320	0.24970675
7	0xbdea0ab0	-0.1142782
8	0xbe82a57e	-0.25516886
9	0xbe1cd212	-0.1531451
10	0xbeab0f6c	-0.33410203
11	0x3e1f4e81	0.1555729
12	0x3eb13c0e	0.3461613
13	0xbed974f6	-0.42472047
14	0x3dcd2a72	0.100178614

bias f4 [3]
0	0x3e62b788	0.22140324
1	0x3da61410	0.08109295
2	0xbe275ed1	-0.16344763

weight f4 [1, 3]
0	0x3e962a65	0.2932922
1	0x3e9b57ec	0.30340517
2	0x3e4159e6	0.1888195
